hey_house_e.tflite (tflite, 206748 bytes, 9 tensors)

Const_1 f4 [32]
00000000: d94c d3bc 3607 943c 4339 133c b31f 163c
00000010: e7cb 88bc deed f83b 9704 cebc 39d2 55bc
00000020: 66c4 9f3c 95c1 afbc 3d92 7a3a 75d1 da3b
00000030: 2e9a 2f3a e2be 053b 4438 3d3c 1b45 b43b
00000040: 7192 4c3b 7675 853b 92af 19ba 5196 553c
00000050: e648 97bb c3e0 8d3c 93a8 83bb 17eb 4fbc
00000060: 97b1 9fbc 5999 6fbc c767 cabc e702 d0bc
00000070: 2f20 9fbc a225 283b 9343 6fbb b20e d9bc
-0.02579348 0.018069845 0.00898582 0.009162831 -0.01669879 0.0075967154 -0.025148673 -0.013050609
0.01950283 -0.021454612 0.00095585344 0.0066778013 0.0006698695 0.0020407964 0.011549059 0.005501402
0.0031215216 0.0040728403 -0.0005862649 0.0130363265 -0.0046168445 0.017319089 -0.0040178983 -0.012690327
-0.019493861 -0.014623963 -0.024707688 -0.025392009 -0.019424526 0.0025657197 -0.0036508783 -0.026496265

Const_2 f4 [32]
00000000: 195a 7e3f 6c7f 7d3f 49ef 783f 2e4a 813f
00000010: 4d85 7f3f b8c6 7d3f 62b7 823f 7612 7c3f
00000020: 5994 843f 6028 7f3f 3345 833f 2278 7e3f
00000030: f80f 813f 536a 7f3f 62d2 823f a6d5 743f
00000040: 8a52 853f 1d99 7f3f 0790 7b3f 7317 7c3f
00000050: 00fc 7e3f 76ba 7e3f 0acc 833f 5449 7f3f
00000060: 490d 813f 36aa 7f3f 1cae 7e3f fc15 843f
00000070: 72bf 763f 637d 833f f445 7f3f dc80 7f3f
0.9935623 0.99022555 0.9724012 1.0100763 0.99812776 0.99131346 1.0212214 0.9846567
1.0357772 0.9967098 1.0255493 0.9940206 1.0082998 0.9977161 1.0220454 0.956385
1.0415814 0.9984301 0.98266643 0.9847328 0.9960327 0.99503267 1.0296643 0.99721265
1.0082179 0.99869096 0.9948442 1.0319209 0.9638587 1.027264 0.99716115 0.99806

Const_3 f4 [32]
00000000: 8308 d23a 8149 b43c e9bb a13c 88c5 0d3c
00000010: 4cba 22bc efbd ff3a 18fe 893b 3f5a 3e3c
00000020: 7a1c 4c3c 38e2 1dbc 91ae 7f3c 37d7 873c
00000030: 99ae fc3b a499 50bc bb74 123c a63c a33c
00000040: b1cc 113d d4ea 1bbc 2d81 ee3b 789a ad3b
00000050: 8c38 b6ba aa75 48bc 295a 3f3c 0d18 45bb
00000060: 263e 3ebc 7dc0 eebb 01e4 4b3b 4b75 3f3c
00000070: 3c01 92bc d562 293c d0ff e2bb d802 3fbc
0.0016024265 0.022007706 0.019742923 0.008653052 -0.009932112 0.0019511561 0.0042111985 0.011618196
0.012457961 -0.009636454 0.015605585 0.016582115 0.0077112434 -0.012731943 0.0089389635 0.01992638
0.0355956 -0.009516437 0.0072785825 0.005297955 -0.001390235 -0.012235085 0.011679211 -0.003007415
-0.011611497 -0.00728613 0.0031111243 0.01168568 -0.017822854 0.010338505 -0.006927468 -0.011658393

Const_5 f4 [32]
00000000: 0f56 d73d b276 f73d 0c5d 01be 61f6 123e
00000010: 76c0 023d 8b6c 883d d9b1 2dbe 7f12 89bd
00000020: 07ff 223e 326d 0ebe 1150 c43d db4d 983c
00000030: 6b8b 7a3c 5e81 b43d e852 023e 8a8a 0bbd
00000040: 172c 203d a3b1 87bd a970 1c3e bc79 7cbd
00000050: 1813 f33d cb82 b2bd 61b1 15bd 4c24 dabd
00000060: 44d3 07bd af8f cbbd 63c2 183c 2215 0a3e
00000070: 39fd ad3d 5068 b4bd 08e1 073e 83d5 eb3d
0.10514461 0.12083186 -0.12633151 0.14351799 0.031921826 0.06661328 -0.16962375 -0.06692981
0.15917598 -0.13908842 0.09585584 0.018591812 0.015292029 0.08813737 0.12726939 -0.034067668
0.039104547 -0.066256784 0.15277351 -0.061639532 0.11868876 -0.08716353 -0.036546115 -0.10651454
-0.033160463 -0.09939515 0.009323689 0.13484624 0.08495564 -0.088089585 0.13269436 0.115153335

Const_6 f4 [32]
00000000: 9fc6 813f 7b9e a03f 3b58 813f f798 7e3f
00000010: 106c 7e3f 2553 7e3f a57c 9a3f 6982 833f
00000020: 5903 7f3f fae0 9f3f 2ead 973f c7a9 873f
00000030: 399e 7f3f fc4e 7c3f b381 7f3f 1ef8 7a3f
00000040: 7586 9c3f 1224 8b3f b90c 843f b500 803f
00000050: d87f 9d3f 9b5d 863f dc06 8b3f 4d1f 7c3f
00000060: 891d 813f d1c1 a73f 9e49 833f 0da1 aa3f
00000070: bc32 b63f 175d 873f 5b7d 793f ba6d 893f
1.0138739 1.2548364 1.0105051 0.99452156 0.9938364 0.9934562 1.2069288 1.0274173
0.99614483 1.2490532 1.1849725 1.0598687 0.99850804 0.9855802 0.9980728 0.98034847
1.2228533 1.0870383 1.0316383 1.0000216 1.230464 1.0497316 1.0861468 0.9848526
1.0087138 1.3106023 1.0256841 1.3330399 1.4234233 1.0575284 0.974569 1.0736611

Const_7 f4 [32]
00000000: efff 493b 9852 7a3e 4d98 673c 6b99 fdbb
00000010: 441c 90bb 9391 6ebc d196 663e d904 4e3c
00000020: c4ce c6ba 42d3 6f3e d567 633e d601 463d
00000030: f0d7 60bb 208e 28bd 49bd 91bb 4821 f4bc
00000040: 1121 6a3e 21d7 463d 0c50 853c 5b05 0abb
00000050: e347 693e 6516 fc3c 967a ab3d d550 d7bc
00000060: 776e 53bb d74b 8a3e 77d0 553c 2be6 8e3e
00000070: bf58 a13e 9f05 143d eae9 b0bc 8e43 6c3d
0.0030822714 0.2444557 0.014135432 -0.007739236 -0.004397901 -0.014561075 0.2251847 0.012574398
-0.0015167822 0.23420432 0.22207578 0.048341595 -0.0034308396 -0.041151166 -0.0044476134 -0.029801026
0.22864176 0.048545007 0.01627352 -0.002106032 0.22781329 0.030772397 0.08372991 -0.02628366
-0.0032261887 0.27010986 0.01305019 0.2790998 0.3151302 0.036138173 -0.021595914 0.057681613

MatMul f4 [32, 1536]
00000000: 0185 dcbb 8c52 cf3c 4db9 adbc a5cf 04bd
00000010: 571f f6bc 0ad1 1abc 70af 17bb a7a5 e53b
00000020: b92a d2bc 2377 a03c 899a 31bc 83aa fb3b
00000030: 5969 3d3c 5454 a0bc c621 c5bc c3d8 80bc
00000040: 70d6 cdbc a141 013d 72cc ac3b ab8d ed3b
00000050: 71cd 783b 2377 0f3c 1c51 b5bc 984c e53b
00000060: 2876 c03c 5299 e8ba 83e6 49bc 9b93 41bc
00000070: 98a7 323b 6d42 32bb 8be3 40bc 634b 673c
00000080: 8986 b63a 932c e8bc e1f3 afbb 4576 86bc
00000090: 8a6b 12bc 79c3 03bb b09c 93bc 1eb1 c83c
000000a0: 691a 873c 9ae6 d73b bf67 08bb 853d b23c
000000b0: e974 14bd 38c9 cfbc 9252 6b3b 32ea 4fbc
000000c0: 2108 03bd d886 003c c2db a8ba c16c d43c
000000d0: d6b4 86bc 897d 273d d204 b43c 0faa b83c
000000e0: 68dd e0bc f083 fa3b fa03 183c 9fbf efbb
000000f0: 0de0 123c 936e 853c 3ed6 b53b 83ba 07bd
00000100: efe3 4cbb 0086 d138 6ad6 21bc 7ae7 7ebb
00000110: 103e a43c a0d2 9e3c e277 debb 0eda 663c
00000120: 32b0 ff3b 633a 39bc 90fb 62bc b960 173b
00000130: af52 c2ba 6512 e9bc c6d9 0c3b 7f8c a13c
00000140: 0a17 34bc 6829 883b feda 743c e96d 17bc
00000150: 7cf8 843c 4437 eabc 2c80 c4bc 9fc5 453c
00000160: 8d28 5a3b 07ac 17bb 1ad9 b6bb 59c2 823c
00000170: 2d21 aeba 2fcf 3e3c 5684 803c f96e a1bc
00000180: d06a 31bc 05bc c43b 02d5 c03c ab4e ca3c
00000190: 3642 933b 9590 833c 697e 6fbb 76f6 403b
000001a0: edb2 9c3c 6956 afba fadc 9d3c c4e2 07bc
000001b0: c7e2 78bc 4029 ed3b ac4e 38bb 3dad c8bc
000001c0: cf00 6abc 2821 7a3c dca8 bd3c 948e dcb9
000001d0: b238 963c 8ffe 05bb 01cf b93c 5f82 bdbc
000001e0: 6ec8 0ebb ad93 5e3c 686a 52bc b7d3 7cbc
000001f0: becc 64bc d7c1 c0b7 89ea d63c 1088 a73c
00000200: ee1c b4bc 7c47 bb3c 288e 253b 0158 b9bc
00000210: 4c1b 2a3c a6c4 a13c e2d4 a4bc 4376 db3c
00000220: e38a ac3b 1407 31bc 846d 923c 5867 54bc
00000230: 063e 12bc 64e6 d2bc b6a6 a93b df15 7bbc
00000240: 656b 053c fbaf e4bc 28ad b73b 5762 4fbc
00000250: 7f7f 99bb 1f64 ed3a b969 0b3c 38c0 af3c
00000260: 9ae6 64bc 042d 6e3c 3210 aabc 8252 353b
00000270: d1f2 75bb 0cb8 00bd 96ee 9fbc bf52 a23c
00000280: 22bd cdbc 667f 703c d878 9abc 81ee 063c
00000290: fa85 9abc 6cd9 e9bb 4b6f d23c 1630 86bb
000002a0: 82a4 d63b 916c 4f3b e6a7 9abb 02a5 5c3c
000002b0: b46d ab3c 2afc 763b f012 8f3c 6325 0d3c
000002c0: 397a c0bc a1ee bfbc 916f 87bc dd90 2a3c
000002d0: 6339 daba a056 20ba 9ce0 823b 72c8 f9ba
000002e0: 87dc a9bb 2c1e 853c 326e 26bb 4eb6 f9bb
000002f0: c3c0 fcbb dcfd af3b 445b c13b e472 943c
00000300: 5fdb dc3c 2158 49bb d347 c3bb 2811 e13a
00000310: 0b24 313b e70d d9bc 2911 b5ba f367 b5bc
00000320: 2b73 babc eaa8 3dbc 0cea abbc 8efb ed3c
00000330: 437a f4ba e56d fb39 f2a6 0d3c f80f 17bd
00000340: c771 c0bc e37d 203d 9463 a73b f93c 793c
00000350: fb68 dd38 8ff9 34bc a803 093c 42a8 1fbc
00000360: 2c17 49bc cd79 bd3c d76c 1dbc 5a4a f6bb
00000370: 1598 61bc 9031 afbc 1e29 e03c 6f77 a33b
00000380: 9f64 4ebc 7635 4abc 736b af3c 3dd3 b6bc
00000390: 3f40 70ba 42a0 cc3b 96c2 da3c 2a69 943c
000003a0: 8e9c 41bc 6417 5abc 93cd 6c3c 8223 bd3c
000003b0: 80a3 efbc fda7 253c 0be5 903c 8ec2 ab3c
000003c0: a857 86bc 4b0a ec3c b4ae 013c 6f87 0abc
000003d0: f5bb b2bc e40a 0a3c ae89 e9bb b35a bd3c
000003e0: 303e 8f3c cef0 fb3b 4156 babc 327c 0ebb
000003f0: 4655 703b 2275 90b9 43d4 c4bb be12 3ebc
-0.0067297225 0.025307916 -0.021206522 -0.032424588 -0.03004424 -0.009449253 -0.002314534 0.0070082727
-0.025655137 0.019588059 -0.010840067 0.0076802387 0.011560761 -0.01957146 -0.024063956 -0.01572836
-0.025126666 0.03155673 0.005273395 0.007249554 0.003796425 0.008756432 -0.022133403 0.006997656
0.023493841 -0.0017745888 -0.012323025 -0.011814977 0.0027260538 -0.0027200237 -0.0117730005 0.014117095
0.0013925593 -0.028341567 -0.005369649 -0.016413817 -0.008936772 -0.0020105524 -0.01801905 0.024498519
0.016492086 0.006588769 -0.002081379 0.02175785 -0.036244307 -0.025364503 0.003590737 -0.012690114
-0.031990174 0.007844649 -0.0012882876 0.025930764 -0.016443651 0.040891204 0.021974955 0.022542028
-0.027449325 0.0076451227 0.009278292 -0.007316544 0.008964551 0.016288077 0.0055492213 -0.033136856
-0.0031263789 9.990856e-05 -0.00987778 -0.0038895295 0.020049125 0.019387543 -0.0067891935 0.014090074
0.0078029865 -0.011305424 -0.0138539225 0.0023098423 -0.0014825667 -0.028451154 0.0021492108 0.019720314
-0.010991821 0.0041553266 0.01494479 -0.009242513 0.016231768 -0.028590806 -0.023986898 0.012071042
0.003328833 -0.0023143308 -0.0055800797 0.015961813 -0.0013285034 0.011646076 0.015688103 -0.019706236
-0.010828689 0.006003859 0.02353907 0.024695715 0.004493977 0.016060153 -0.0036543852 0.0029443777
0.019128287 -0.0013377193 0.019270409 -0.008293811 -0.015190787 0.0072375834 -0.0028123064 -0.024496669
-0.014282419 0.015266694 0.023151807 -0.000420679 0.018337581 -0.0020445918 0.022681715 -0.023133455
-0.0021786946 0.013585013 -0.012842752 -0.015431336 -0.01396483 -2.2978447e-05 0.026234882 0.020450622
-0.021986451 0.022861235 0.0025261734 -0.022624971 0.010382485 0.01974709 -0.020121042 0.02678979
0.00526558 -0.01080491 0.017874487 -0.012964092 -0.00892592 -0.025744624 0.005177344 -0.015325039
0.008143281 -0.027915945 0.0056053586 -0.012657723 -0.004684388 0.0018111503 0.008509093 0.021453962
-0.013970995 0.0145371 -0.020759676 0.0027667587 -0.0037528763 -0.03142552 -0.019522946 0.019814847
-0.0251146 0.014678812 -0.01885645 0.008235575 -0.018862713 -0.0071365144 0.025687834 -0.0040950878
0.0065503726 0.0031650404 -0.004719722 0.013467075 0.020926334 0.0037686923 0.017465085 0.008614871
-0.02349578 -0.023429217 -0.016532691 0.010410515 -0.0016649183 -0.0006116424 0.0039940607 -0.001905693
-0.0051837596 0.016249739 -0.0025395271 -0.0076206094 -0.0077134087 0.0053708386 0.0059007723 0.01812119
0.026960073 -0.0030722695 -0.00595949 0.0017171251 0.002702954 -0.026495887 -0.0013814318 -0.022144293
-0.022759994 -0.011575917 -0.020985626 0.029050615 -0.001865216 0.00047956328 0.00864576 -0.036880463
-0.023491753 0.039182555 0.005108306 0.015212291 0.00010557655 -0.0110458275 0.008362688 -0.009744706
-0.012273591 0.023129368 -0.009608469 -0.0075161876 -0.013769169 -0.021385938 0.027363356 0.004988603
-0.012597232 -0.012341848 0.02141354 -0.022317523 -0.0009164847 0.00624469 0.026704114 0.018116552
-0.011817111 -0.013311241 0.01445331 0.02308822 -0.029252768 0.010110852 0.017687341 0.020966794
-0.01639922 0.028813502 0.007915188 -0.008455141 -0.02181814 0.008425448 -0.0071270084 0.023114538
0.017485708 0.0076886183 -0.022746207 -0.0021741507 0.003667192 -0.0002755309 -0.006006749 -0.011601148

MatMul_1 f4 [32, 32]
00000000: cc5e 2f3e e40c e9bb 7d18 88bd d4f3 22bd
00000010: f69b d8bc e32b 34bc 3944 123e 27e0 fd3d
00000020: 0125 083e 87ef bebd 1bbd 00bd 7ff3 f63d
00000030: 17c8 2dbe 3110 dc3d c3c0 fcbd 9b81 493c
00000040: 5ebf 54bc abc7 7fbd a082 0fbe 5e4c 6d3d
00000050: c512 44bd 09c5 04be 80c9 033c a6f6 9fbd
00000060: a977 2c3e a9c4 b5bc 0956 8cbc c885 923b
00000070: 8bcf 9fbc 03fe 7b3d 0863 95bd 4899 df3d
00000080: 9094 fbbd 03ca 143d 67c8 fc3d 4541 093e
00000090: 5888 f9bd 7ff5 593d 6765 c33d 3fa3 983d
000000a0: d7e4 22be 15af 87bc bd42 d53d ebca c8bd
000000b0: 8e6c 743d 7153 17be baaf 15bd 67cc 093e
000000c0: d95b 1ebe 6c6d b6bd 7c08 d03d 093e fabc
000000d0: 77d5 adbb d6fb 9fbd f08c 2e3e 00b9 b23c
000000e0: 0c66 fa3b d059 67bd 9179 9c3d a6ea e63d
000000f0: 121b 033e 2498 bb3d 2cee 133e b84f 28be
00000100: 81ef c73d 846a 11bc 2523 a63d ed6f 63bb
00000110: 5c17 6fbd fb7f 6ebd 20c2 9f3d 374f 16bd
00000120: a5a9 2c3e f738 003e ef22 8b3d 7cd6 cb3c
00000130: 0d93 26be cc0f aa3d 03f8 0ebe 7380 073e
00000140: 9d40 3bbd 0693 bdbd 3c9d b33d 3b03 263d
00000150: 5f33 143c 2231 40bd c02e 203e 2563 dfbd
00000160: 6960 5ebc 3990 dcbd 1f40 d43c 236f 82bc
00000170: 125d 8e3d 5745 00be d053 3ebc 7894 733d
00000180: 9cd1 1b3e 82eb 17be 5961 0d3e d19d f0bd
00000190: 5385 22be a06a 05bc f8ed fe3a a320 ccbd
000001a0: 3564 2ebc bded a2bc 1c89 a2bc c879 7a3d
000001b0: 3d19 b53d 02b2 efbd 0bd1 5abd 2cf7 0cbe
000001c0: 9519 703d 427f 09be 1d68 19be 82f7 cfbd
000001d0: 8223 25bc 3e14 8cbd ac78 eebc 9c3c d6bd
000001e0: 86df 28bd b1b6 dbbd d433 e63d 4176 203d
000001f0: a820 b5bd 3f24 50bd 0438 21bd 0ff0 f1bc
00000200: 215f 133e 102f 00be b1b4 63bd e8dd da3c
00000210: b95d 18be 1399 053e 55cf 2e3e 8def d73a
00000220: b7e7 233d 07bc 2ebe d0f2 e9bd f534 2cbe
00000230: ba87 11be 8c3d d1bc 783d 2c3c 24f0 203e
00000240: 5d82 f8b9 0852 243e 7e4c babd 5d9e 783d
00000250: 7518 eabd 59b6 28be 9348 fa3c 15d4 37be
00000260: 6ac0 40be 161a ea3d c024 5cbd 5270 d3bc
00000270: 135b c53d fb41 1a3e 8110 1d3d 736d f8bd
00000280: 7532 bcbd 292b 09bd 94c7 263e 4dbe c1bd
00000290: fbc0 2dbe efdb f93d f9ae 10be db13 c6bd
000002a0: 03a1 cf3d e31e 8a3d 4db8 20be a834 1f3c
000002b0: fe80 21be 1ceb 88bd 7028 0fbe 5227 06bd
000002c0: 1aac 853d 88e7 b03d 3487 783c 9b4f 173e
000002d0: e2bc 1abe 87e2 873d d29f 313e 8dcb 793d
000002e0: 4983 06bd 1ddc 1f3d 35a5 96bc 0d3c a1bd
000002f0: feec 1d3e 0a96 09be 8232 183e cb4b 073e
00000300: 496f 0ebc cfdc ed3d 5bc9 d9bb 2c2b e9bd
00000310: 2f1a f3bd f2dd acbd 3030 fabd 64a7 dbbd
00000320: 776e 903d 8441 dfbd af8b ecbc 795b 213e
00000330: cc6c 2b3d c191 68bc 6213 283e 42af d23d
00000340: 3376 b63d 87e1 2fbe 6a24 1a3e 658e a1bc
00000350: 015a 23be 1604 c33d a810 8b3d 6eb8 a8bd
00000360: 88be 573d dc3d fabd 65ea 26be 6d90 c53d
00000370: fa5c febc 7340 b639 f812 a3bd 75a6 8e3d
00000380: 6edb 23be 0b83 a03d 357c 1c3e d286 473e
00000390: 493d b2bd 548e c2bd 77e8 393e 9c6a 2d3d
000003a0: 64e2 603e ea92 233e 8f4a 2dbe c15c a83b
000003b0: 6796 ba3d 2020 4fbd 8172 083e ecd2 dabd
000003c0: be74 e7bd 6969 f7bd dbd5 aa3d 5060 cdbd
000003d0: f2fa ecbd f221 20be 1136 f1bd 3c5d 30be
000003e0: fbbf 073e 8cad 633d 2c0c 81bc ad69 b33c
000003f0: 8897 dd3d 6e47 23bc 0ebe 993d ffa2 2d3e
0.17126006 -0.0071121324 -0.06645296 -0.039783314 -0.026441555 -0.0109967915 0.14283837 0.12396269
0.13295366 -0.0932303 -0.031430345 0.12058162 -0.1697086 0.10745276 -0.12341454 0.012298967
-0.012985079 -0.062446278 -0.14014673 0.057934158 -0.047869463 -0.12965788 0.008043647 -0.07810716
0.16842522 -0.022188501 -0.017130869 0.0044715144 -0.019508144 0.06152154 -0.07294279 0.10917908
-0.122841954 0.036325466 0.12342911 0.13403805 -0.12184209 0.05321264 0.09540825 0.07453012
-0.15907608 -0.016562978 0.1041312 -0.098043285 0.05967384 -0.14777924 -0.03654454 0.1345688
-0.15464725 -0.08907589 0.10157868 -0.030547159 -0.005304988 -0.07811706 0.17045951 0.02181673
0.0076415595 -0.056482136 0.076403745 0.112752244 0.12803295 0.09159878 0.14446324 -0.1643666
0.097624786 -0.008875493 0.08112172 -0.0034704164 -0.058371887 -0.05822752 0.07800698 -0.03669664
0.16861589 0.1252173 0.067937724 0.024882548 -0.16267033 0.08303794 -0.13961796 0.13232593
-0.045715917 -0.09256558 0.087702245 0.040530425 0.009045451 -0.046921857 0.15642834 -0.10907582
-0.013572791 -0.10769696 0.025909482 -0.015922135 0.069513455 -0.12526451 -0.011616662 0.059467763
0.15216678 -0.14835933 0.13806666 -0.11748851 -0.15871172 -0.008143097 0.0019449582 -0.099671625
-0.010644008 -0.019888753 -0.01984077 0.061151296 0.088427044 -0.11703874 -0.053422015 -0.13766164
0.058618147 -0.13427451 -0.14981122 -0.1015463 -0.0100792665 -0.068397984 -0.029110275 -0.10460779
-0.041228794 -0.10728205 0.11240354 0.039175276 -0.08844119 -0.050815817 -0.03936006 -0.029533414
0.14391758 -0.12517953 -0.055592243 0.026717141 -0.14879502 0.13046674 0.17071278 0.001647459
0.040015902 -0.17063914 -0.11423266 -0.16817077 -0.14211932 -0.025542043 0.010512702 0.15716606
-0.00047399374 0.16046917 -0.09096621 0.060697902 -0.11430446 -0.1647581 0.030552184 -0.17951997
-0.188234 0.11430757 -0.053745985 -0.025810394 0.09636512 0.15064232 0.038345817 -0.12130251
-0.091893114 -0.033488426 0.1628707 -0.09460125 -0.16968147 0.12200152 -0.14129247 -0.09671756
0.101381324 0.067441724 -0.15695305 0.009717144 -0.15771863 -0.066854686 -0.1398027 -0.032752343
0.065269664 0.08637911 0.015168954 0.14776461 -0.15111116 0.066350035 0.17346123 0.060985137
-0.032840047 0.039028276 -0.018389324 -0.07872782 0.15422437 -0.13436142 0.14863017 0.13212506
-0.008693525 0.116143815 -0.006646318 -0.113851875 -0.118702285 -0.0844077 -0.12216222 -0.107252866
0.070523195 -0.10901168 -0.0288752 0.1575755 0.041851804 -0.014194907 0.16413644 0.10287334
0.089092635 -0.17175876 0.15052953 -0.01972122 -0.15952303 0.09522264 0.06790286 -0.08238302
0.05267194 -0.1221883 -0.16300352 0.09646688 -0.031050194 0.00034761764 -0.079626024 0.06965343
-0.16001675 0.078374945 0.15281756 0.19485024 -0.087030955 -0.09499803 0.18155085 0.042338
0.21961361 0.15974012 -0.16922973 0.0051380103 0.09110718 -0.050567746 0.1332493 -0.106847614
-0.11301564 -0.12080652 0.08341571 -0.10028136 -0.115713015 -0.15637949 -0.117778905 -0.17223066
0.13256828 0.05558543 -0.015752874 0.021900976 0.10819918 -0.009965761 0.07506953 0.1695671

MatMul_2 f4 [1, 32]
00000000: 4e6c b93d d699 a6be 5330 803c 835a 0a3d
00000010: f524 0f3b 23c2 d7bd 90a1 b3be c6a5 d93d
00000020: 3829 9d3b f985 c1be 1056 a7be 26e4 683e
00000030: f887 a939 6991 d33d 06f4 023e a282 0fbd
00000040: 5271 b8be 9999 243e ea64 3f3e ba97 08bd
00000050: 96d5 c1be 3394 423e a1cf c43d b5a5 0b3e
00000060: 62a0 d73c 9f2a adbe 64aa 373d 3437 a0be
00000070: ed38 c1be 1850 ad3d 82d7 9b3c 436c ea3d
0.090538606 -0.32539243 0.015648043 0.033777725 0.0021842096 -0.105350755 -0.350842 0.10627322
0.0047961734 -0.37797526 -0.32682848 0.22743282 0.00032335497 0.10330469 0.127884 -0.03503669
-0.36023957 0.16074218 0.1869084 -0.033347823 -0.37858266 0.19001846 0.096099146 0.13637431
0.026321594 -0.3382158 0.04484023 -0.31292117 -0.37738743 0.08462542 0.01902366 0.114464305
